…
Rank 1 is available
world_size:  8
Rank 0 is available
Rank 5 is available
Rank 2 is available
Rank 6 is available
Rank 7 is available
using GPU 7 for training
using GPU 3 for training
[**] create folder work_dir/AMT-S_floloss1e-2_300epoch_bs24_lr2e-4
using GPU 0 for training
base_trainer
using GPU 5 for training
using GPU 6 for training
using GPU 2 for training
using GPU 1 for training
using GPU 4 for training
DistributedDataParallel(
  (module): Model(
    (feat_encoder): SmallEncoder(
      (norm1): InstanceNorm2d(32, eps=1e-05, momentum=0.1, affine=False, track_running_stats=False)
      (conv1): Conv2d(3, 32, kernel_size=(7, 7), stride=(2, 2), padding=(3, 3))
      (relu1): ReLU(inplace=True)
      (layer1): Sequential(
        (0): BottleneckBlock(
          (conv1): Conv2d(32, 8, kernel_size=(1, 1), stride=(1, 1))
          (conv2): Conv2d(8, 8, kernel_size=(3, 3), stride=(1, 1), padding=(1, 1))
          (conv3): Conv2d(8, 32, kernel_size=(1, 1), stride=(1, 1))
          (relu): ReLU(inplace=True)
          (norm1): InstanceNorm2d(8, eps=1e-05, momentum=0.1, affine=False, track_running_stats=False)
          (norm2): InstanceNorm2d(8, eps=1e-05, momentum=0.1, affine=False, track_running_stats=False)
          (norm3): InstanceNorm2d(32, eps=1e-05, momentum=0.1, affine=False, track_running_stats=False)
        )
        (1): BottleneckBlock(
          (conv1): Conv2d(32, 8, kernel_size=(1, 1), stride=(1, 1))
          (conv2): Conv2d(8, 8, kernel_size=(3, 3), stride=(1, 1), padding=(1, 1))
          (conv3): Conv2d(8, 32, kernel_size=(1, 1), stride=(1, 1))
          (relu): ReLU(inplace=True)
          (norm1): InstanceNorm2d(8, eps=1e-05, momentum=0.1, affine=False, track_running_stats=False)
          (norm2): InstanceNorm2d(8, eps=1e-05, momentum=0.1, affine=False, track_running_stats=False)
          (norm3): InstanceNorm2d(32, eps=1e-05, momentum=0.1, affine=False, track_running_stats=False)
        )
      )
      (layer2): Sequential(
        (0): BottleneckBlock(
          (conv1): Conv2d(32, 16, kernel_size=(1, 1), stride=(1, 1))
          (conv2): Conv2d(16, 16, kernel_size=(3, 3), stride=(2, 2), padding=(1, 1))
          (conv3): Conv2d(16, 64, kernel_size=(1, 1), stride=(1, 1))
          (relu): ReLU(inplace=True)
          (norm1): InstanceNorm2d(16, eps=1e-05, momentum=0.1, affine=False, track_running_stats=False)
          (norm2): InstanceNorm2d(16, eps=1e-05, momentum=0.1, affine=False, track_running_stats=False)
          (norm3): InstanceNorm2d(64, eps=1e-05, momentum=0.1, affine=False, track_running_stats=False)
          (norm4): InstanceNorm2d(64, eps=1e-05, momentum=0.1, affine=False, track_running_stats=False)
          (downsample): Sequential(
            (0): Conv2d(32, 64, kernel_size=(1, 1), stride=(2, 2))
            (1): InstanceNorm2d(64, eps=1e-05, momentum=0.1, affine=False, track_running_stats=False)
          )
        )
        (1): BottleneckBlock(
          (conv1): Conv2d(64, 16, kernel_size=(1, 1), stride=(1, 1))
          (conv2): Conv2d(16, 16, kernel_size=(3, 3), stride=(1, 1), padding=(1, 1))
          (conv3): Conv2d(16, 64, kernel_size=(1, 1), stride=(1, 1))
          (relu): ReLU(inplace=True)
          (norm1): InstanceNorm2d(16, eps=1e-05, momentum=0.1, affine=False, track_running_stats=False)
          (norm2): InstanceNorm2d(16, eps=1e-05, momentum=0.1, affine=False, track_running_stats=False)
          (norm3): InstanceNorm2d(64, eps=1e-05, momentum=0.1, affine=False, track_running_stats=False)
        )
      )
      (layer3): Sequential(
        (0): BottleneckBlock(
          (conv1): Conv2d(64, 24, kernel_size=(1, 1), stride=(1, 1))
          (conv2): Conv2d(24, 24, kernel_size=(3, 3), stride=(2, 2), padding=(1, 1))
          (conv3): Conv2d(24, 96, kernel_size=(1, 1), stride=(1, 1))
          (relu): ReLU(inplace=True)
          (norm1): InstanceNorm2d(24, eps=1e-05, momentum=0.1, affine=False, track_running_stats=False)
          (norm2): InstanceNorm2d(24, eps=1e-05, momentum=0.1, affine=False, track_running_stats=False)
          (norm3): InstanceNorm2d(96, eps=1e-05, momentum=0.1, affine=False, track_running_stats=False)
          (norm4): InstanceNorm2d(96, eps=1e-05, momentum=0.1, affine=False, track_running_stats=False)
          (downsample): Sequential(
            (0): Conv2d(64, 96, kernel_size=(1, 1), stride=(2, 2))
            (1): InstanceNorm2d(96, eps=1e-05, momentum=0.1, affine=False, track_running_stats=False)
          )
        )
        (1): BottleneckBlock(
          (conv1): Conv2d(96, 24, kernel_size=(1, 1), stride=(1, 1))
          (conv2): Conv2d(24, 24, kernel_size=(3, 3), stride=(1, 1), padding=(1, 1))
          (conv3): Conv2d(24, 96, kernel_size=(1, 1), stride=(1, 1))
          (relu): ReLU(inplace=True)
          (norm1): InstanceNorm2d(24, eps=1e-05, momentum=0.1, affine=False, track_running_stats=False)
          (norm2): InstanceNorm2d(24, eps=1e-05, momentum=0.1, affine=False, track_running_stats=False)
          (norm3): InstanceNorm2d(96, eps=1e-05, momentum=0.1, affine=False, track_running_stats=False)
        )
      )
      (conv2): Conv2d(96, 84, kernel_size=(1, 1), stride=(1, 1))
    )
    (encoder): Encoder(
      (pyramid1): Sequential(
        (0): Sequential(
          (0): Conv2d(3, 20, kernel_size=(3, 3), stride=(2, 2), padding=(1, 1))
          (1): PReLU(num_parameters=20)
        )
        (1): Sequential(
          (0): Conv2d(20, 20, kernel_size=(3, 3), stride=(1, 1), padding=(1, 1))
          (1): PReLU(num_parameters=20)
        )
      )
      (pyramid2): Sequential(
        (0): Sequential(
          (0): Conv2d(20, 32, kernel_size=(3, 3), stride=(2, 2), padding=(1, 1))
          (1): PReLU(num_parameters=32)
        )
        (1): Sequential(
          (0): Conv2d(32, 32, kernel_size=(3, 3), stride=(1, 1), padding=(1, 1))
          (1): PReLU(num_parameters=32)
        )
      )
      (pyramid3): Sequential(
        (0): Sequential(
          (0): Conv2d(32, 44, kernel_size=(3, 3), stride=(2, 2), padding=(1, 1))
          (1): PReLU(num_parameters=44)
        )
        (1): Sequential(
          (0): Conv2d(44, 44, kernel_size=(3, 3), stride=(1, 1), padding=(1, 1))
          (1): PReLU(num_parameters=44)
        )
      )
      (pyramid4): Sequential(
        (0): Sequential(
          (0): Conv2d(44, 56, kernel_size=(3, 3), stride=(2, 2), padding=(1, 1))
          (1): PReLU(num_parameters=56)
        )
        (1): Sequential(
          (0): Conv2d(56, 56, kernel_size=(3, 3), stride=(1, 1), padding=(1, 1))
          (1): PReLU(num_parameters=56)
        )
      )
    )
    (decoder4): InitDecoder(
      (convblock): Sequential(
        (0): Sequential(
          (0): Conv2d(113, 112, kernel_size=(3, 3), stride=(1, 1), padding=(1, 1))
          (1): PReLU(num_parameters=112)
        )
        (1): ResBlock(
          (conv1): Sequential(
            (0): Conv2d(112, 112, kernel_size=(3, 3), stride=(1, 1), padding=(1, 1))
            (1): PReLU(num_parameters=112)
          )
          (conv2): Sequential(
            (0): Conv2d(20, 20, kernel_size=(3, 3), stride=(1, 1), padding=(1, 1))
            (1): PReLU(num_parameters=20)
          )
          (conv3): Sequential(
            (0): Conv2d(112, 112, kernel_size=(3, 3), stride=(1, 1), padding=(1, 1))
            (1): PReLU(num_parameters=112)
          )
          (conv4): Sequential(
            (0): Conv2d(20, 20, kernel_size=(3, 3), stride=(1, 1), padding=(1, 1))
            (1): PReLU(num_parameters=20)
          )
          (conv5): Conv2d(112, 112, kernel_size=(3, 3), stride=(1, 1), padding=(1, 1))
          (prelu): PReLU(num_parameters=112)
        )
        (2): ConvTranspose2d(112, 48, kernel_size=(4, 4), stride=(2, 2), padding=(1, 1))
      )
    )
    (decoder3): IntermediateDecoder(
      (convblock): Sequential(
        (0): Sequential(
          (0): Conv2d(136, 132, kernel_size=(3, 3), stride=(1, 1), padding=(1, 1))
          (1): PReLU(num_parameters=132)
        )
        (1): ResBlock(
          (conv1): Sequential(
            (0): Conv2d(132, 132, kernel_size=(3, 3), stride=(1, 1), padding=(1, 1))
            (1): PReLU(num_parameters=132)
          )
          (conv2): Sequential(
            (0): Conv2d(20, 20, kernel_size=(3, 3), stride=(1, 1), padding=(1, 1))
            (1): PReLU(num_parameters=20)
          )
          (conv3): Sequential(
            (0): Conv2d(132, 132, kernel_size=(3, 3), stride=(1, 1), padding=(1, 1))
            (1): PReLU(num_parameters=132)
          )
          (conv4): Sequential(
            (0): Conv2d(20, 20, kernel_size=(3, 3), stride=(1, 1), padding=(1, 1))
            (1): PReLU(num_parameters=20)
          )
          (conv5): Conv2d(132, 132, kernel_size=(3, 3), stride=(1, 1), padding=(1, 1))
          (prelu): PReLU(num_parameters=132)
        )
        (2): ConvTranspose2d(132, 36, kernel_size=(4, 4), stride=(2, 2), padding=(1, 1))
      )
    )
    (decoder2): IntermediateDecoder(
      (convblock): Sequential(
        (0): Sequential(
          (0): Conv2d(100, 96, kernel_size=(3, 3), stride=(1, 1), padding=(1, 1))
          (1): PReLU(num_parameters=96)
        )
        (1): ResBlock(
          (conv1): Sequential(
            (0): Conv2d(96, 96, kernel_size=(3, 3), stride=(1, 1), padding=(1, 1))
            (1): PReLU(num_parameters=96)
          )
          (conv2): Sequential(
            (0): Conv2d(20, 20, kernel_size=(3, 3), stride=(1, 1), padding=(1, 1))
            (1): PReLU(num_parameters=20)
          )
          (conv3): Sequential(
            (0): Conv2d(96, 96, kernel_size=(3, 3), stride=(1, 1), padding=(1, 1))
            (1): PReLU(num_parameters=96)
          )
          (conv4): Sequential(
            (0): Conv2d(20, 20, kernel_size=(3, 3), stride=(1, 1), padding=(1, 1))
            (1): PReLU(num_parameters=20)
          )
          (conv5): Conv2d(96, 96, kernel_size=(3, 3), stride=(1, 1), padding=(1, 1))
          (prelu): PReLU(num_parameters=96)
        )
        (2): ConvTranspose2d(96, 24, kernel_size=(4, 4), stride=(2, 2), padding=(1, 1))
      )
    )
    (decoder1): MultiFlowDecoder(
      (convblock): Sequential(
        (0): Sequential(
          (0): Conv2d(64, 60, kernel_size=(3, 3), stride=(1, 1), padding=(1, 1))
          (1): PReLU(num_parameters=60)
        )
        (1): ResBlock(
          (conv1): Sequential(
            (0): Conv2d(60, 60, kernel_size=(3, 3), stride=(1, 1), padding=(1, 1))
            (1): PReLU(num_parameters=60)
          )
          (conv2): Sequential(
            (0): Conv2d(20, 20, kernel_size=(3, 3), stride=(1, 1), padding=(1, 1))
            (1): PReLU(num_parameters=20)
          )
          (conv3): Sequential(
            (0): Conv2d(60, 60, kernel_size=(3, 3), stride=(1, 1), padding=(1, 1))
            (1): PReLU(num_parameters=60)
          )
          (conv4): Sequential(
            (0): Conv2d(20, 20, kernel_size=(3, 3), stride=(1, 1), padding=(1, 1))
            (1): PReLU(num_parameters=20)
          )
          (conv5): Conv2d(60, 60, kernel_size=(3, 3), stride=(1, 1), padding=(1, 1))
          (prelu): PReLU(num_parameters=60)
        )
        (2): ConvTranspose2d(60, 24, kernel_size=(4, 4), stride=(2, 2), padding=(1, 1))
      )
    )
    (update4): SmallUpdateBlock(
      (convc1): Conv2d(392, 64, kernel_size=(1, 1), stride=(1, 1))
      (convf1): Conv2d(4, 40, kernel_size=(7, 7), stride=(1, 1), padding=(3, 3))
      (convf2): Conv2d(40, 20, kernel_size=(3, 3), stride=(1, 1), padding=(1, 1))
      (conv): Conv2d(84, 68, kernel_size=(3, 3), stride=(1, 1), padding=(1, 1))
      (gru): Sequential(
        (0): Conv2d(116, 76, kernel_size=(3, 3), stride=(1, 1), padding=(1, 1))
        (1): LeakyReLU(negative_slope=0.1, inplace=True)
        (2): Conv2d(76, 76, kernel_size=(3, 3), stride=(1, 1), padding=(1, 1))
      )
      (feat_head): Sequential(
        (0): Conv2d(76, 76, kernel_size=(3, 3), stride=(1, 1), padding=(1, 1))
        (1): LeakyReLU(negative_slope=0.1, inplace=True)
        (2): Conv2d(76, 44, kernel_size=(3, 3), stride=(1, 1), padding=(1, 1))
      )
      (flow_head): Sequential(
        (0): Conv2d(76, 76, kernel_size=(3, 3), stride=(1, 1), padding=(1, 1))
        (1): LeakyReLU(negative_slope=0.1, inplace=True)
        (2): Conv2d(76, 4, kernel_size=(3, 3), stride=(1, 1), padding=(1, 1))
      )
      (lrelu): LeakyReLU(negative_slope=0.1, inplace=True)
    )
    (update3): SmallUpdateBlock(
      (convc1): Conv2d(392, 64, kernel_size=(1, 1), stride=(1, 1))
      (convf1): Conv2d(4, 40, kernel_size=(7, 7), stride=(1, 1), padding=(3, 3))
      (convf2): Conv2d(40, 20, kernel_size=(3, 3), stride=(1, 1), padding=(1, 1))
      (conv): Conv2d(84, 68, kernel_size=(3, 3), stride=(1, 1), padding=(1, 1))
      (gru): Sequential(
        (0): Conv2d(104, 76, kernel_size=(3, 3), stride=(1, 1), padding=(1, 1))
        (1): LeakyReLU(negative_slope=0.1, inplace=True)
        (2): Conv2d(76, 76, kernel_size=(3, 3), stride=(1, 1), padding=(1, 1))
      )
      (feat_head): Sequential(
        (0): Conv2d(76, 76, kernel_size=(3, 3), stride=(1, 1), padding=(1, 1))
        (1): LeakyReLU(negative_slope=0.1, inplace=True)
        (2): Conv2d(76, 32, kernel_size=(3, 3), stride=(1, 1), padding=(1, 1))
      )
      (flow_head): Sequential(
        (0): Conv2d(76, 76, kernel_size=(3, 3), stride=(1, 1), padding=(1, 1))
        (1): LeakyReLU(negative_slope=0.1, inplace=True)
        (2): Conv2d(76, 4, kernel_size=(3, 3), stride=(1, 1), padding=(1, 1))
      )
      (lrelu): LeakyReLU(negative_slope=0.1, inplace=True)
    )
    (update2): SmallUpdateBlock(
      (convc1): Conv2d(392, 64, kernel_size=(1, 1), stride=(1, 1))
      (convf1): Conv2d(4, 40, kernel_size=(7, 7), stride=(1, 1), padding=(3, 3))
      (convf2): Conv2d(40, 20, kernel_size=(3, 3), stride=(1, 1), padding=(1, 1))
      (conv): Conv2d(84, 68, kernel_size=(3, 3), stride=(1, 1), padding=(1, 1))
      (gru): Sequential(
        (0): Conv2d(92, 76, kernel_size=(3, 3), stride=(1, 1), padding=(1, 1))
        (1): LeakyReLU(negative_slope=0.1, inplace=True)
        (2): Conv2d(76, 76, kernel_size=(3, 3), stride=(1, 1), padding=(1, 1))
      )
      (feat_head): Sequential(
        (0): Conv2d(76, 76, kernel_size=(3, 3), stride=(1, 1), padding=(1, 1))
        (1): LeakyReLU(negative_slope=0.1, inplace=True)
        (2): Conv2d(76, 20, kernel_size=(3, 3), stride=(1, 1), padding=(1, 1))
      )
      (flow_head): Sequential(
        (0): Conv2d(76, 76, kernel_size=(3, 3), stride=(1, 1), padding=(1, 1))
        (1): LeakyReLU(negative_slope=0.1, inplace=True)
        (2): Conv2d(76, 4, kernel_size=(3, 3), stride=(1, 1), padding=(1, 1))
      )
      (lrelu): LeakyReLU(negative_slope=0.1, inplace=True)
    )
    (comb_block): Sequential(
      (0): Conv2d(9, 18, kernel_size=(3, 3), stride=(1, 1), padding=(1, 1))
      (1): PReLU(num_parameters=18)
      (2): Conv2d(18, 3, kernel_size=(3, 3), stride=(1, 1), padding=(1, 1))
    )
  )
)
2023-12-04 08:55:21,628 logger.py[line:55]INFO DistributedDataParallel(
  (module): Model(
    (feat_encoder): SmallEncoder(
      (norm1): InstanceNorm2d(32, eps=1e-05, momentum=0.1, affine=False, track_running_stats=False)
      (conv1): Conv2d(3, 32, kernel_size=(7, 7), stride=(2, 2), padding=(3, 3))
      (relu1): ReLU(inplace=True)
      (layer1): Sequential(
        (0): BottleneckBlock(
          (conv1): Conv2d(32, 8, kernel_size=(1, 1), stride=(1, 1))
          (conv2): Conv2d(8, 8, kernel_size=(3, 3), stride=(1, 1), padding=(1, 1))
          (conv3): Conv2d(8, 32, kernel_size=(1, 1), stride=(1, 1))
          (relu): ReLU(inplace=True)
          (norm1): InstanceNorm2d(8, eps=1e-05, momentum=0.1, affine=False, track_running_stats=False)
          (norm2): InstanceNorm2d(8, eps=1e-05, momentum=0.1, affine=False, track_running_stats=False)
          (norm3): InstanceNorm2d(32, eps=1e-05, momentum=0.1, affine=False, track_running_stats=False)
        )
        (1): BottleneckBlock(
          (conv1): Conv2d(32, 8, kernel_size=(1, 1), stride=(1, 1))
          (conv2): Conv2d(8, 8, kernel_size=(3, 3), stride=(1, 1), padding=(1, 1))
          (conv3): Conv2d(8, 32, kernel_size=(1, 1), stride=(1, 1))
          (relu): ReLU(inplace=True)
          (norm1): InstanceNorm2d(8, eps=1e-05, momentum=0.1, affine=False, track_running_stats=False)
          (norm2): InstanceNorm2d(8, eps=1e-05, momentum=0.1, affine=False, track_running_stats=False)
          (norm3): InstanceNorm2d(32, eps=1e-05, momentum=0.1, affine=False, track_running_stats=False)
        )
      )
      (layer2): Sequential(
        (0): BottleneckBlock(
          (conv1): Conv2d(32, 16, kernel_size=(1, 1), stride=(1, 1))
          (conv2): Conv2d(16, 16, kernel_size=(3, 3), stride=(2, 2), padding=(1, 1))
          (conv3): Conv2d(16, 64, kernel_size=(1, 1), stride=(1, 1))
          (relu): ReLU(inplace=True)
          (norm1): InstanceNorm2d(16, eps=1e-05, momentum=0.1, affine=False, track_running_stats=False)
          (norm2): InstanceNorm2d(16, eps=1e-05, momentum=0.1, affine=False, track_running_stats=False)
          (norm3): InstanceNorm2d(64, eps=1e-05, momentum=0.1, affine=False, track_running_stats=False)
          (norm4): InstanceNorm2d(64, eps=1e-05, momentum=0.1, affine=False, track_running_stats=False)
          (downsample): Sequential(
            (0): Conv2d(32, 64, kernel_size=(1, 1), stride=(2, 2))
            (1): InstanceNorm2d(64, eps=1e-05, momentum=0.1, affine=False, track_running_stats=False)
          )
        )
        (1): BottleneckBlock(
          (conv1): Conv2d(64, 16, kernel_size=(1, 1), stride=(1, 1))
          (conv2): Conv2d(16, 16, kernel_size=(3, 3), stride=(1, 1), padding=(1, 1))
          (conv3): Conv2d(16, 64, kernel_size=(1, 1), stride=(1, 1))
          (relu): ReLU(inplace=True)
          (norm1): InstanceNorm2d(16, eps=1e-05, momentum=0.1, affine=False, track_running_stats=False)
          (norm2): InstanceNorm2d(16, eps=1e-05, momentum=0.1, affine=False, track_running_stats=False)
          (norm3): InstanceNorm2d(64, eps=1e-05, momentum=0.1, affine=False, track_running_stats=False)
        )
      )
      (layer3): Sequential(
        (0): BottleneckBlock(
          (conv1): Conv2d(64, 24, kernel_size=(1, 1), stride=(1, 1))
          (conv2): Conv2d(24, 24, kernel_size=(3, 3), stride=(2, 2), padding=(1, 1))
          (conv3): Conv2d(24, 96, kernel_size=(1, 1), stride=(1, 1))
          (relu): ReLU(inplace=True)
          (norm1): InstanceNorm2d(24, eps=1e-05, momentum=0.1, affine=False, track_running_stats=False)
          (norm2): InstanceNorm2d(24, eps=1e-05, momentum=0.1, affine=False, track_running_stats=False)
          (norm3): InstanceNorm2d(96, eps=1e-05, momentum=0.1, affine=False, track_running_stats=False)
          (norm4): InstanceNorm2d(96, eps=1e-05, momentum=0.1, affine=False, track_running_stats=False)
          (downsample): Sequential(
            (0): Conv2d(64, 96, kernel_size=(1, 1), stride=(2, 2))
            (1): InstanceNorm2d(96, eps=1e-05, momentum=0.1, affine=False, track_running_stats=False)
          )
        )
        (1): BottleneckBlock(
          (conv1): Conv2d(96, 24, kernel_size=(1, 1), stride=(1, 1))
          (conv2): Conv2d(24, 24, kernel_size=(3, 3), stride=(1, 1), padding=(1, 1))
          (conv3): Conv2d(24, 96, kernel_size=(1, 1), stride=(1, 1))
          (relu): ReLU(inplace=True)
          (norm1): InstanceNorm2d(24, eps=1e-05, momentum=0.1, affine=False, track_running_stats=False)
          (norm2): InstanceNorm2d(24, eps=1e-05, momentum=0.1, affine=False, track_running_stats=False)
          (norm3): InstanceNorm2d(96, eps=1e-05, momentum=0.1, affine=False, track_running_stats=False)
        )
      )
      (conv2): Conv2d(96, 84, kernel_size=(1, 1), stride=(1, 1))
    )
    (encoder): Encoder(
      (pyramid1): Sequential(
        (0): Sequential(
          (0): Conv2d(3, 20, kernel_size=(3, 3), stride=(2, 2), padding=(1, 1))
          (1): PReLU(num_parameters=20)
        )
        (1): Sequential(
          (0): Conv2d(20, 20, kernel_size=(3, 3), stride=(1, 1), padding=(1, 1))
          (1): PReLU(num_parameters=20)
        )
      )
      (pyramid2): Sequential(
        (0): Sequential(
          (0): Conv2d(20, 32, kernel_size=(3, 3), stride=(2, 2), padding=(1, 1))
          (1): PReLU(num_parameters=32)
        )
        (1): Sequential(
          (0): Conv2d(32, 32, kernel_size=(3, 3), stride=(1, 1), padding=(1, 1))
          (1): PReLU(num_parameters=32)
        )
      )
      (pyramid3): Sequential(
        (0): Sequential(
          (0): Conv2d(32, 44, kernel_size=(3, 3), stride=(2, 2), padding=(1, 1))
          (1): PReLU(num_parameters=44)
        )
        (1): Sequential(
          (0): Conv2d(44, 44, kernel_size=(3, 3), stride=(1, 1), padding=(1, 1))
          (1): PReLU(num_parameters=44)
        )
      )
      (pyramid4): Sequential(
        (0): Sequential(
          (0): Conv2d(44, 56, kernel_size=(3, 3), stride=(2, 2), padding=(1, 1))
          (1): PReLU(num_parameters=56)
        )
        (1): Sequential(
          (0): Conv2d(56, 56, kernel_size=(3, 3), stride=(1, 1), padding=(1, 1))
          (1): PReLU(num_parameters=56)
        )
      )
    )
    (decoder4): InitDecoder(
      (convblock): Sequential(
        (0): Sequential(
          (0): Conv2d(113, 112, kernel_size=(3, 3), stride=(1, 1), padding=(1, 1))
          (1): PReLU(num_parameters=112)
        )
        (1): ResBlock(
          (conv1): Sequential(
            (0): Conv2d(112, 112, kernel_size=(3, 3), stride=(1, 1), padding=(1, 1))
            (1): PReLU(num_parameters=112)
          )
          (conv2): Sequential(
            (0): Conv2d(20, 20, kernel_size=(3, 3), stride=(1, 1), padding=(1, 1))
            (1): PReLU(num_parameters=20)
          )
          (conv3): Sequential(
            (0): Conv2d(112, 112, kernel_size=(3, 3), stride=(1, 1), padding=(1, 1))
            (1): PReLU(num_parameters=112)
          )
          (conv4): Sequential(
            (0): Conv2d(20, 20, kernel_size=(3, 3), stride=(1, 1), padding=(1, 1))
            (1): PReLU(num_parameters=20)
          )
          (conv5): Conv2d(112, 112, kernel_size=(3, 3), stride=(1, 1), padding=(1, 1))
          (prelu): PReLU(num_parameters=112)
        )
        (2): ConvTranspose2d(112, 48, kernel_size=(4, 4), stride=(2, 2), padding=(1, 1))
      )
    )
    (decoder3): IntermediateDecoder(
      (convblock): Sequential(
        (0): Sequential(
          (0): Conv2d(136, 132, kernel_size=(3, 3), stride=(1, 1), padding=(1, 1))
          (1): PReLU(num_parameters=132)
        )
        (1): ResBlock(
          (conv1): Sequential(
            (0): Conv2d(132, 132, kernel_size=(3, 3), stride=(1, 1), padding=(1, 1))
            (1): PReLU(num_parameters=132)
          )
          (conv2): Sequential(
            (0): Conv2d(20, 20, kernel_size=(3, 3), stride=(1, 1), padding=(1, 1))
            (1): PReLU(num_parameters=20)
          )
          (conv3): Sequential(
            (0): Conv2d(132, 132, kernel_size=(3, 3), stride=(1, 1), padding=(1, 1))
            (1): PReLU(num_parameters=132)
          )
          (conv4): Sequential(
            (0): Conv2d(20, 20, kernel_size=(3, 3), stride=(1, 1), padding=(1, 1))
            (1): PReLU(num_parameters=20)
          )
          (conv5): Conv2d(132, 132, kernel_size=(3, 3), stride=(1, 1), padding=(1, 1))
          (prelu): PReLU(num_parameters=132)
        )
        (2): ConvTranspose2d(132, 36, kernel_size=(4, 4), stride=(2, 2), padding=(1, 1))
      )
    )
    (decoder2): IntermediateDecoder(
      (convblock): Sequential(
        (0): Sequential(
          (0): Conv2d(100, 96, kernel_size=(3, 3), stride=(1, 1), padding=(1, 1))
          (1): PReLU(num_parameters=96)
        )
        (1): ResBlock(
          (conv1): Sequential(
            (0): Conv2d(96, 96, kernel_size=(3, 3), stride=(1, 1), padding=(1, 1))
            (1): PReLU(num_parameters=96)
          )
          (conv2): Sequential(
            (0): Conv2d(20, 20, kernel_size=(3, 3), stride=(1, 1), padding=(1, 1))
            (1): PReLU(num_parameters=20)
          )
          (conv3): Sequential(
            (0): Conv2d(96, 96, kernel_size=(3, 3), stride=(1, 1), padding=(1, 1))
            (1): PReLU(num_parameters=96)
          )
          (conv4): Sequential(
            (0): Conv2d(20, 20, kernel_size=(3, 3), stride=(1, 1), padding=(1, 1))
            (1): PReLU(num_parameters=20)
          )
          (conv5): Conv2d(96, 96, kernel_size=(3, 3), stride=(1, 1), padding=(1, 1))
          (prelu): PReLU(num_parameters=96)
        )
        (2): ConvTranspose2d(96, 24, kernel_size=(4, 4), stride=(2, 2), padding=(1, 1))
      )
    )
    (decoder1): MultiFlowDecoder(
      (convblock): Sequential(
        (0): Sequential(
          (0): Conv2d(64, 60, kernel_size=(3, 3), stride=(1, 1), padding=(1, 1))
          (1): PReLU(num_parameters=60)
        )
        (1): ResBlock(
          (conv1): Sequential(
            (0): Conv2d(60, 60, kernel_size=(3, 3), stride=(1, 1), padding=(1, 1))
            (1): PReLU(num_parameters=60)
          )
          (conv2): Sequential(
            (0): Conv2d(20, 20, kernel_size=(3, 3), stride=(1, 1), padding=(1, 1))
            (1): PReLU(num_parameters=20)
          )
          (conv3): Sequential(
            (0): Conv2d(60, 60, kernel_size=(3, 3), stride=(1, 1), padding=(1, 1))
            (1): PReLU(num_parameters=60)
          )
          (conv4): Sequential(
            (0): Conv2d(20, 20, kernel_size=(3, 3), stride=(1, 1), padding=(1, 1))
            (1): PReLU(num_parameters=20)
          )
          (conv5): Conv2d(60, 60, kernel_size=(3, 3), stride=(1, 1), padding=(1, 1))
          (prelu): PReLU(num_parameters=60)
        )
        (2): ConvTranspose2d(60, 24, kernel_size=(4, 4), stride=(2, 2), padding=(1, 1))
      )
    )
    (update4): SmallUpdateBlock(
      (convc1): Conv2d(392, 64, kernel_size=(1, 1), stride=(1, 1))
      (convf1): Conv2d(4, 40, kernel_size=(7, 7), stride=(1, 1), padding=(3, 3))
      (convf2): Conv2d(40, 20, kernel_size=(3, 3), stride=(1, 1), padding=(1, 1))
      (conv): Conv2d(84, 68, kernel_size=(3, 3), stride=(1, 1), padding=(1, 1))
      (gru): Sequential(
        (0): Conv2d(116, 76, kernel_size=(3, 3), stride=(1, 1), padding=(1, 1))
        (1): LeakyReLU(negative_slope=0.1, inplace=True)
        (2): Conv2d(76, 76, kernel_size=(3, 3), stride=(1, 1), padding=(1, 1))
      )
      (feat_head): Sequential(
        (0): Conv2d(76, 76, kernel_size=(3, 3), stride=(1, 1), padding=(1, 1))
        (1): LeakyReLU(negative_slope=0.1, inplace=True)
        (2): Conv2d(76, 44, kernel_size=(3, 3), stride=(1, 1), padding=(1, 1))
      )
      (flow_head): Sequential(
        (0): Conv2d(76, 76, kernel_size=(3, 3), stride=(1, 1), padding=(1, 1))
        (1): LeakyReLU(negative_slope=0.1, inplace=True)
        (2): Conv2d(76, 4, kernel_size=(3, 3), stride=(1, 1), padding=(1, 1))
      )
      (lrelu): LeakyReLU(negative_slope=0.1, inplace=True)
    )
    (update3): SmallUpdateBlock(
      (convc1): Conv2d(392, 64, kernel_size=(1, 1), stride=(1, 1))
      (convf1): Conv2d(4, 40, kernel_size=(7, 7), stride=(1, 1), padding=(3, 3))
      (convf2): Conv2d(40, 20, kernel_size=(3, 3), stride=(1, 1), padding=(1, 1))
      (conv): Conv2d(84, 68, kernel_size=(3, 3), stride=(1, 1), padding=(1, 1))
      (gru): Sequential(
        (0): Conv2d(104, 76, kernel_size=(3, 3), stride=(1, 1), padding=(1, 1))
        (1): LeakyReLU(negative_slope=0.1, inplace=True)
        (2): Conv2d(76, 76, kernel_size=(3, 3), stride=(1, 1), padding=(1, 1))
      )
      (feat_head): Sequential(
        (0): Conv2d(76, 76, kernel_size=(3, 3), stride=(1, 1), padding=(1, 1))
        (1): LeakyReLU(negative_slope=0.1, inplace=True)
        (2): Conv2d(76, 32, kernel_size=(3, 3), stride=(1, 1), padding=(1, 1))
      )
      (flow_head): Sequential(
        (0): Conv2d(76, 76, kernel_size=(3, 3), stride=(1, 1), padding=(1, 1))
        (1): LeakyReLU(negative_slope=0.1, inplace=True)
        (2): Conv2d(76, 4, kernel_size=(3, 3), stride=(1, 1), padding=(1, 1))
      )
      (lrelu): LeakyReLU(negative_slope=0.1, inplace=True)
    )
    (update2): SmallUpdateBlock(
      (convc1): Conv2d(392, 64, kernel_size=(1, 1), stride=(1, 1))
      (convf1): Conv2d(4, 40, kernel_size=(7, 7), stride=(1, 1), padding=(3, 3))
      (convf2): Conv2d(40, 20, kernel_size=(3, 3), stride=(1, 1), padding=(1, 1))
      (conv): Conv2d(84, 68, kernel_size=(3, 3), stride=(1, 1), padding=(1, 1))
      (gru): Sequential(
        (0): Conv2d(92, 76, kernel_size=(3, 3), stride=(1, 1), padding=(1, 1))
        (1): LeakyReLU(negative_slope=0.1, inplace=True)
        (2): Conv2d(76, 76, kernel_size=(3, 3), stride=(1, 1), padding=(1, 1))
      )
      (feat_head): Sequential(
        (0): Conv2d(76, 76, kernel_size=(3, 3), stride=(1, 1), padding=(1, 1))
        (1): LeakyReLU(negative_slope=0.1, inplace=True)
        (2): Conv2d(76, 20, kernel_size=(3, 3), stride=(1, 1), padding=(1, 1))
      )
      (flow_head): Sequential(
        (0): Conv2d(76, 76, kernel_size=(3, 3), stride=(1, 1), padding=(1, 1))
        (1): LeakyReLU(negative_slope=0.1, inplace=True)
        (2): Conv2d(76, 4, kernel_size=(3, 3), stride=(1, 1), padding=(1, 1))
      )
      (lrelu): LeakyReLU(negative_slope=0.1, inplace=True)
    )
    (comb_block): Sequential(
      (0): Conv2d(9, 18, kernel_size=(3, 3), stride=(1, 1), padding=(1, 1))
      (1): PReLU(num_parameters=18)
      (2): Conv2d(18, 3, kernel_size=(3, 3), stride=(1, 1), padding=(1, 1))
    )
  )
)
2023-12-04 08:59:32,699 logger.py[line:55]INFO [AMT-S_floloss1e-2_300epoch_bs24_lr2e-4]epoch:1/300 iter:100/641400 time:2.536(0.480) lr:2.000e-04 eta:451:46:01(451:50:12)
l_rec:4.066e-02 l_ter:3.831e-02 l_flo:1.143e-02 best:0.00dB


INFO:VFI:[AMT-S_floloss1e-2_300epoch_bs24_lr2e-4]epoch:1/300 iter:100/641400 time:2.536(0.480) lr:2.000e-04 eta:451:46:01(451:50:12)
…
